model_weights/model_weights_ep_000.pth (torch, 573498 bytes, 42 tensors)

fc1.weight f4 [256, 15]
0	0x3ffc923f	1.9732131
1	0x3fc588e2	1.5432398
2	0x3f8b6e01	1.0892946
3	0x3ff9a9cc	1.9504943
4	0x3fca1a39	1.5789253
5	0x3f99aeca	1.2006466
6	0x3ff65b4d	1.9246613
7	0x3feca1a2	1.8486826
8	0x40060b56	2.094442
9	0x3faf20a9	1.3681842
10	0x3fdca8f8	1.7239065
11	0x3f3308f4	0.69935536
12	0x3f614ca6	0.8800758
13	0x3f134683	0.5752947
14	0x3ed134c5	0.40860572
15	0x3ea937c2	0.33050352
16	0x3f4890d4	0.7834599
17	0x3f84dec4	1.0380483
18	0x3f6d9ff0	0.9282217
19	0x3c4f9762	0.01267037
20	0x3d1b071b	0.037848573
21	0x3f4bf491	0.79670054
22	0x3e9c5aba	0.3053797
23	0x3e7a98ec	0.24472398
24	0x3f19ca32	0.6007415
25	0x3f277587	0.6541371
26	0xbeb92891	-0.36163762
27	0xbf171965	-0.59023124
28	0xbe1f7ced	-0.15574999
29	0x3fbf332d	1.4937493
30	0x3f9ad111	1.2095052
31	0x3f3fa53e	0.74861515
32	0x3d8edb01	0.069753654
33	0x3efc15b0	0.49235296
34	0x3f82ce29	1.0219165
35	0x3f668918	0.9005294
36	0x3f1f73b2	0.6228591
37	0x3cd3a82f	0.025837032
38	0x3f1fa2c1	0.6235772
39	0x3eb41059	0.35168722
40	0x3fb1e19b	1.3896974
41	0x3f7d3971	0.98915774
42	0x3e8428b8	0.25812316
43	0x3f42f70c	0.76158214
44	0x3fc8bf45	1.5683371
45	0x3f00ce01	0.50314337
46	0x3f9fd9db	1.2488359
47	0xbf62111c	-0.88307357
48	0x3ef11f68	0.47094274
49	0x3d58575a	0.05281768
50	0x3f8584ab	1.0431112
51	0xbe93daec	-0.28877962
52	0xbe69ea55	-0.22843297
53	0x3f4d7069	0.8024965
54	0x3f8b1e45	1.0868613
55	0xbe885d30	-0.26633596
56	0x3f8bea88	1.0930948
57	0x3e020a1b	0.12699167
58	0x3f0bfab7	0.54679435
59	0x3f3f3172	0.7468482
60	0x3fd71949	1.6804591
61	0x3fb1e4f5	1.3897997
62	0x3f5b3e38	0.85641813
63	0x3fbccc5f	1.4749869
64	0x3f6de158	0.9292197
65	0x3f6ccdf4	0.9250176
66	0x3f908a9b	1.1292299
67	0x3fec83c6	1.8477714
68	0x3fda971f	1.7077368
69	0x3f955309	1.1665965
70	0x3fa8921c	1.3169589
71	0x3f5d1b40	0.86369705
72	0x3f0481a7	0.51760334
73	0x3ee87339	0.45400408
74	0x3f1c21cf	0.6098909
75	0x3f91c816	1.1389186
76	0x3f23585c	0.638067
77	0x3f264fe6	0.64965665
78	0x3f3b064b	0.7305648
79	0x3f074d79	0.5285259
80	0x3f91544e	1.1353853
81	0x3f9bcb9b	1.217151
82	0x3fa033af	1.2515773
83	0x3f9766c7	1.182824
84	0x3f61cccc	0.8820312
85	0x3fb014f9	1.37564
86	0x3f4f9cc8	0.81098604
87	0x3f80be11	1.0058004
88	0x3f5e468d	0.868264
89	0x3fe1dc2e	1.7645319
90	0x3e41eb8e	0.18937513
91	0x3f63f646	0.8904766
92	0x3f41fc98	0.7577605
93	0x3fd01713	1.6257042
94	0x3f4fe2c9	0.8120542
95	0x3f98bc7f	1.1932524
96	0x3e8df9bb	0.27729592
97	0x3f1ac108	0.6045079
98	0x3f802275	1.0010515
99	0x3b3b9bb4	0.0028626742
100	0xbd2aa09b	-0.04165707
101	0x3f1a8df1	0.60372835
102	0x3f78f2bf	0.972454
103	0x3e245f22	0.16051915
104	0x3f92fe3f	1.148384
105	0x3f97a481	1.1847078
106	0x3f33c5b9	0.70223576
107	0x3f831497	1.0240659
108	0x3f981c4f	1.1883639
109	0x3f4c5f34	0.7983277
110	0x3df0b3a0	0.11753011
111	0x3f58dd59	0.8471275
112	0x3f40a1ae	0.75246704
113	0x3facf897	1.3513364
114	0x3f0b7975	0.54482204
115	0x3efb3527	0.4906399
116	0x3fe75f5b	1.8075975
117	0x3eb5f50e	0.35538524
118	0x3f01c9d5	0.50698596
119	0x3f865f9e	1.049793
120	0x3f963b70	1.1736889
121	0x3f27ff27	0.65623707
122	0x3f2c94d8	0.6741462
123	0x3f9c3ef3	1.220671
124	0x3ea7bc29	0.32760742
125	0x3f4f6012	0.81005967
126	0x3f0b79a7	0.544825
127	0x3eea1606	0.45719928
128	0x3ee55ba3	0.44796476
129	0x3f020a18	0.5079665
130	0x3d00548d	0.031330634
131	0x3ef9b50c	0.4877094
132	0x3f96871e	1.1759984
133	0x3f866fda	1.0502884
134	0x3f27ea61	0.6559201
135	0x3fa3c79e	1.2795293
136	0x3f5411e9	0.8283983
137	0x3ef8d4f5	0.48599973
138	0x3ef6c927	0.48200342
139	0x3f6384a0	0.88874245
140	0x3edc3872	0.43011814
141	0x3f9d6278	1.2295675
142	0x3fa0c8ab	1.2561239
143	0x3f5c22f2	0.8599082
144	0x3f60316a	0.875754
145	0x3f4d9314	0.8030255
146	0x3f5f77f0	0.87292385
147	0x3f42ecc9	0.76142555
148	0x3eac97b4	0.3370949
149	0x3fb3df12	1.4052451
150	0xbeb02405	-0.3440248
151	0xbf8da261	-1.1065179
152	0x3ebc1d72	0.36741215
153	0x3f9f8a48	1.2464075
154	0x3f832597	1.0245847
155	0x3f390d14	0.7228558
156	0x3eddfbad	0.43356076
157	0x3efc77d4	0.49310172
158	0x3efc5397	0.49282524
159	0x3e9db576	0.30802506
160	0x3ea00b4c	0.3125862
161	0x3fabf96a	1.343549
162	0x3f9e9d8d	1.2391831
163	0x3eac4317	0.33644935
164	0x3f8a6726	1.0812728
165	0xbf840d60	-1.0316582
166	0x3edc696d	0.43049183
167	0x3ea958e6	0.33075637
168	0x3e97defe	0.29662317
169	0x3d9b4c33	0.07582893
170	0x3ca17c2b	0.019712528
171	0x3f9b4680	1.213089
172	0x3f4f1bc3	0.80901736
173	0x3f53452d	0.8252743
174	0x3fa044db	1.2521013
175	0x3f316076	0.6928781
176	0xbfada7df	-1.3566855
177	0xbf7f1344	-0.9963877
178	0xbfce1105	-1.6098944
179	0xbf62234b	-0.883351
180	0x3e020bff	0.12699889
181	0x3d1dc587	0.038518455
182	0x3f87812f	1.0586299
183	0x3f538bbe	0.82635105
184	0xb7673f05	-1.3783346e-05
185	0x3f02d0d6	0.5109991
186	0x3ec7a38c	0.38991964
187	0x3f74276d	0.9537266
188	0x3f961101	1.1723939
189	0x3f25653a	0.64607584
190	0xbda917e4	-0.0825651
191	0x3fb7fde8	1.4374361
192	0x3f3386e6	0.70127714
193	0x3e8c8a3f	0.27449223
194	0x3f8d90f6	1.1059864
195	0x3f990211	1.1953756
196	0x3f97c2ba	1.1856301
197	0x3f637d20	0.888628
198	0x3f847a25	1.0349776
199	0x3f83ab7c	1.0286708
200	0x3f2d533f	0.6770515
201	0x3f7566e4	0.95860124
202	0x3f79b48b	0.9754111
203	0x3f803f4c	1.0019317
204	0x3f4642f7	0.7744593
205	0x3f3d4e88	0.73947954
206	0x3ec552c5	0.3853971
207	0x3f8382e5	1.0274321
208	0x3f47c07e	0.78028095
209	0x3fb910a0	1.4458199
210	0x3f992a50	1.1966038
211	0x3e96e280	0.2946968
212	0x3f91b6e5	1.138394
213	0x3e811ec2	0.2521878
214	0x3d0faa0f	0.03507429
215	0x3f968518	1.1759367
216	0x3de4a561	0.11164356
217	0x3f1e48cf	0.6182985
218	0x3e50d37f	0.2039318
219	0x3decaa21	0.11555887
220	0x3f3cebc5	0.73797256
221	0x3e9a93d2	0.30190903
222	0x3fe53470	1.7906628
223	0x3f690327	0.91020435
224	0x3f1abafa	0.60441554
225	0xbe0b2e08	-0.13591778
226	0x3f9011f8	1.1255484
227	0x3fa6c4c2	1.3028796
228	0x3f79ee75	0.9762948
229	0x3efdd635	0.4957749
230	0x3dc55953	0.09636178
231	0xbea7fc61	-0.32809737
232	0x3f5ef4f3	0.8709251
233	0x3cec7460	0.028864086
234	0x3f32ebcd	0.69891053
235	0x3f1fde4c	0.62448573
236	0xbe6f5853	-0.23373537
237	0x3f47044c	0.7774093
238	0x3e27a06e	0.16369793
239	0x3e9f1317	0.31069252
240	0x3f2d6253	0.67728156
241	0x3ed13660	0.40861797
242	0x3f753bff	0.9579467
243	0x3f4d0529	0.80086
244	0x3ee50e8d	0.44737664
245	0x3d86b39b	0.06577226
246	0x3f9f1078	1.2426901
247	0x3fa3d4ca	1.2799313
248	0x3f853335	1.0406252
249	0x3f035338	0.51298857
250	0x3fab4053	1.3379005
251	0x3fe3ee75	1.7807146
252	0x3f42aee5	0.7604812
253	0x3dfa19f6	0.12211983
254	0x3fd0d40c	1.6314712
255	0x3fda74d1	1.70669

fc1.bias f4 [256]
0	0x4057d9f2	3.3726773
1	0x3e7d0023	0.24707083
2	0x3f3831af	0.7195081
3	0x3f3845f4	0.7198174
4	0x4023a474	2.5569124
5	0x3f540e2d	0.8283413
6	0x3eba28e8	0.36359334
7	0x3f1c9f9a	0.6118103
8	0x3eb18868	0.34674382
9	0x3f2c2fde	0.6726054
10	0x3f420c1f	0.75799745
11	0x3fb0dacd	1.3816773
12	0x3e4e0684	0.20119673
13	0x3fa14f85	1.2602392
14	0x3e1dbf59	0.15405025
15	0x3ec6f7b2	0.38860852
16	0xbb931ddb	-0.004489643
17	0x40241f62	2.5644155
18	0x3e9b324f	0.3031182
19	0x3ed6f36f	0.419826
20	0x3f3822d2	0.7192813
21	0x3f000e2b	0.5002162
22	0x3f8a8dfa	1.0824578
23	0x3f3886be	0.720806
24	0x40097e32	2.1483274
25	0x3ee033b8	0.43789458
26	0x3e822929	0.25422028
27	0x3e85f65f	0.2616453
28	0x3f16c5f3	0.58895797
29	0x3f560839	0.83606297
30	0x3e591c4b	0.21202199
31	0x3f3a297f	0.7271957
32	0x3f621d38	0.88325834
33	0x3f63fb6b	0.8905551
34	0x3fc31029	1.5239307
35	0x3f183548	0.594563
36	0x40210e41	2.516495
37	0x3f809dbe	1.0048139
38	0x3f115637	0.5677218
39	0x3ee8c95e	0.4546613
40	0x3f2058f3	0.62635726
41	0x3f353a69	0.7079225
42	0x3ee4a894	0.44659865
43	0x3eadc41b	0.3393868
44	0x3f240bcc	0.640805
45	0x3f6d46d1	0.9268618
46	0xbdc14a2c	-0.09437975
47	0x3e811d70	0.25217772
48	0xbd91c321	-0.07117296
49	0x40371766	2.8608031
50	0x3ebed4d5	0.37271753
51	0x3f24f85f	0.64441484
52	0x3e5e42a8	0.21705115
53	0x3f6fda00	0.93692017
54	0x3ea73e5a	0.32664758
55	0x4024cd79	2.575041
56	0x3df58f2e	0.119902
57	0x3f1ce18a	0.61281645
58	0xbdcf7297	-0.10129278
59	0xbe7dea57	-0.24796425
60	0x400c7028	2.1943455
61	0x3f79dfae	0.97606933
62	0x3fc9aeb6	1.5756443
63	0x3faf77be	1.3708417
64	0x3f389a06	0.7211002
65	0x3ee6b04a	0.45056373
66	0x3f15cc15	0.5851453
67	0x3f93cda2	1.1547129
68	0x3d753fe4	0.059875384
69	0x3f26085f	0.64856523
70	0x3f5369fc	0.82583594
71	0x3f4f5aeb	0.80998105
72	0x3f65e127	0.8979668
73	0x3e9fc519	0.3120506
74	0xbcaed991	-0.021343978
75	0x3edad634	0.4274155
76	0xbeb67f1c	-0.35643852
77	0x3fa947ba	1.3225014
78	0x3fd4b14c	1.6616607
79	0x3ef861ad	0.4851202
80	0x401b619c	2.4278326
81	0x400bedbc	2.1863852
82	0x3e6f7499	0.23384322
83	0x3e884f52	0.26623017
84	0x3edba163	0.42896566
85	0x3f391131	0.72291857
86	0x3f108cb0	0.5646467
87	0x3f268958	0.6505332
88	0x3f2ac1dc	0.66702056
89	0x3ea5745c	0.32315338
90	0x3edd9edb	0.4328526
91	0xbddda9e4	-0.1082342
92	0x400f5e9f	2.2401502
93	0x3f9c0349	1.2188503
94	0x3fc91068	1.5708132
95	0x3f5781bd	0.8418234
96	0x3fd27f4d	1.6445099
97	0x3ee38bc0	0.44442558
98	0x3f218bf3	0.6310417
99	0x3f80b714	1.0055871
100	0x3f67c02e	0.9052762
101	0x402a15b4	2.6575747
102	0x3f1adb9b	0.6049134
103	0x3e5ffc0b	0.2187349
104	0x40277f87	2.6171587
105	0xbdb958f4	-0.090501696
106	0x3f00184b	0.5003707
107	0xbcbb4dfc	-0.022864334
108	0x3f6e5cd9	0.93110424
109	0x3f0ab175	0.5417703
110	0xbe2997c0	-0.16561794
111	0x3ed59079	0.41711786
112	0x3f2d192a	0.6761652
113	0x3fb1cd3d	1.3890759
114	0x3f593043	0.84839267
115	0x3f00e388	0.50347185
116	0x3ec72ddc	0.38902175
117	0x3f27c902	0.6554109
118	0x3f8cb6c9	1.0993282
119	0x3f736fc6	0.9509243
120	0x3e81b0c9	0.2533019
121	0x3fbe9d3c	1.4891734
122	0x3f2ed794	0.68297696
123	0x3e9dddb8	0.3083322
124	0xbea5749d	-0.3231553
125	0x3e4d05a6	0.20021686
126	0x3f198f16	0.59983957
127	0x3f71efa2	0.94506276
128	0x3ea991e7	0.33119127
129	0x3eb58010	0.35449266
130	0x3ed1ccde	0.40976614
131	0x3f87d2a6	1.061116
132	0x3ed315f7	0.41227695
133	0x3f13c941	0.57728964
134	0x3f2266c8	0.6343808
135	0x3e925c15	0.28585878
136	0x3f54b415	0.83087283
137	0x3f231dbf	0.63717264
138	0x3ebbb8a7	0.36664316
139	0x3eead388	0.4586451
140	0x3f15d481	0.5852738
141	0x3e7d41c4	0.24732119
142	0x3ef610bf	0.4805965
143	0x3f450304	0.76957726
144	0x3f615b7b	0.88030213
145	0x3e4ee76e	0.20205471
146	0x3e896bc7	0.2684004
147	0x3d9d7a2a	0.076893166
148	0x3ee25d47	0.4421179
149	0x3e290518	0.1650585
150	0x3ef23065	0.47302547
151	0x3e78d3f9	0.24299611
152	0x3e372b36	0.17887577
153	0x3f81a726	1.0129135
154	0x3cea5011	0.028602632
155	0x3ebeaa3b	0.3723925
156	0x3ee0c4a0	0.43900013
157	0x3ed3d1bb	0.4137095
158	0x3e9b7d11	0.30368856
159	0x3f003dff	0.500946
160	0x3f06c286	0.5264057
161	0x3fe23fef	1.7675761
162	0x3efbebe3	0.49203405
163	0x3f256f2c	0.6462276
164	0x3f6cc566	0.92488706
165	0x3f347032	0.70483696
166	0x3e9d4b49	0.307215
167	0x3f0128ca	0.50452864
168	0x3f0b2f17	0.5436873
169	0x3f923565	1.1422545
170	0x3f0e1de0	0.55514336
171	0x3fdad091	1.70949
172	0x3ea57dbf	0.323225
173	0x3f1842ae	0.59476745
174	0x3d598243	0.053102743
175	0x3eade139	0.33960894
176	0x3eeba3a2	0.4602328
177	0x3f0e5d44	0.5561106
178	0x3fa2c6d9	1.2716933
179	0x3d17cfa1	0.037063245
180	0x3f024280	0.5088272
181	0x3edbc22b	0.42921576
182	0x3ea27320	0.31728458
183	0x3f8fc755	1.1232706
184	0x3e9699a5	0.29414096
185	0x3f219e1d	0.63131887
186	0x3f336421	0.7007466
187	0x3f0a7712	0.54087937
188	0x3f86729f	1.050373
189	0x40333be1	2.8005297
190	0x3f961c8c	1.1727462
191	0x3f357bc0	0.7089195
192	0x3ee7811b	0.45215687
193	0x3f03edd3	0.51534766
194	0x3f468823	0.7755148
195	0x3e591fd7	0.21203552
196	0x3f982c18	1.1888456
197	0x3ec59947	0.38593504
198	0x3f35441d	0.7080706
199	0x3f205c3f	0.62640756
200	0x3f254268	0.6455445
201	0x3ed2e2f6	0.41188782
202	0x3ee1c023	0.440919
203	0x3f5bfe4b	0.85934895
204	0x3e535356	0.20637259
205	0x3f33ad53	0.70186347
206	0x4049bbb0	3.1520805
207	0x3eb63db3	0.35593948
208	0x3ef5a20a	0.47975188
209	0x402f4b4c	2.7389708
210	0x3f30ef68	0.69115305
211	0x3f11b058	0.56909704
212	0x3e4519e3	0.19248156
213	0x3e8c52c6	0.274069
214	0x3f8e0b7c	1.1097255
215	0x4020e077	2.5137002
216	0x3f2db763	0.6785795
217	0x401807a6	2.3754668
218	0x3be46c47	0.0069709155
219	0x3f9fb73a	1.2477791
220	0x3faab2a5	1.3335768
221	0x3dd4c2cc	0.10388717
222	0x3f45c6ec	0.77256656
223	0x3f4a5f0c	0.7905128
224	0x3f805e3e	1.002876
225	0x3f251024	0.64477754
226	0x3f391c1b	0.7230851
227	0x403a47fe	2.910644
228	0x3f20b0a8	0.62769556
229	0x3f13ea8a	0.57779753
230	0x4034d7a8	2.8256626
231	0x3f1cd187	0.61257213
232	0x3f4a9e18	0.7914748
233	0x3e9bce52	0.30430847
234	0x3efa397d	0.48871985
235	0x3ec47268	0.38368535
236	0xbe76c33d	-0.24097915
237	0xbd9e3ad6	-0.07726066
238	0x3ee065bd	0.4382762
239	0x3e954200	0.29151917
240	0x3f4a1990	0.78945255
241	0x3f256a46	0.64615285
242	0x3f159f70	0.5844641
243	0xbd79656e	-0.060887747
244	0x3e9a7b16	0.30172032
245	0xbdf4d4c5	-0.11954645
246	0x3e9349c5	0.2876722
247	0x3e59c29d	0.21265645
248	0x3f376544	0.71638894
249	0x3f57e795	0.8433774
250	0x3f854762	1.0412409
251	0x3eb13041	0.34607127
252	0x3f3149ab	0.69253033
253	0x3effdf15	0.49974886
254	0x3e2a2504	0.16615683
255	0x3f27c3d1	0.6553317

bn1.weight f4 [256]
0	0x3ddb900d	0.10720835
1	0x4009ca8c	2.1529875
2	0x3f6740d3	0.9033329
3	0x3fd687a5	1.6760145
4	0x3e65ef2f	0.22454523
5	0x3f0f4d7b	0.559776
6	0x3fa71f34	1.3056397
7	0x3f6bec9a	0.921579
8	0x3fb60496	1.422015
9	0x3f396553	0.72420233
10	0x400c8e31	2.1961787
11	0x3ffca629	1.9738208
12	0x3fcadc98	1.584857
13	0x3ee7e511	0.4529195
14	0x3fabed7e	1.3431852
15	0x3f93af93	1.1537956
16	0x3f63c1e1	0.8896771
17	0x3e8af0bb	0.27136788
18	0x3fc27bf9	1.5194083
19	0x3fe3eaab	1.780599
20	0x3fd57655	1.6676737
21	0x40118672	2.273831
22	0x3f3cf9c7	0.7381863
23	0x3ff4beb4	1.9120698
24	0x3e9d1287	0.30678198
25	0x3fecb250	1.8491917
26	0x3fcc1a75	1.5945574
27	0x3f92b584	1.1461644
28	0x3f81c9d1	1.0139714
29	0x3f3eef6d	0.74584085
30	0x3ff4671f	1.909397
31	0x3fdb17ab	1.7116598
32	0x3ff69d5d	1.9266773
33	0x3fbde173	1.4834427
34	0x3f040baf	0.5158033
35	0x3fb8bef8	1.4433279
36	0x3e80da30	0.25166464
37	0x3fd502b4	1.664145
38	0x4001b484	2.0266428
39	0x3fc80cf9	1.5628959
40	0x3fa28880	1.2697906
41	0x3fe380f2	1.7773726
42	0x3f2a8a23	0.6661703
43	0x40430728	3.0473118
44	0x3fff06a3	1.99239
45	0x4002a97c	2.0415945
46	0x3f915788	1.1354837
47	0x3f3cd34b	0.7375991
48	0x3fc1edac	1.5150657
49	0x3e24a148	0.16077149
50	0x40093abf	2.1442106
51	0x3fa2d552	1.272135
52	0x3fc9e630	1.5773373
53	0x3f6806ed	0.9063557
54	0x403aa540	2.916336
55	0x3e6d7ab7	0.23191343
56	0x3f69e464	0.9136412
57	0x3f76f735	0.9647096
58	0x3f756b50	0.9586687
59	0x3ff8309e	1.9389837
60	0x3ea8de00	0.32981873
61	0x3f1ca2f6	0.6118616
62	0x3f22d720	0.63609505
63	0x3fb559e3	1.4168056
64	0x401f3551	2.4876292
65	0x3fe87c9f	1.8163031
66	0x3f594224	0.8486655
67	0x4017ef86	2.3739944
68	0x3fef6d50	1.8705235
69	0x3fc06d05	1.503327
70	0x40334315	2.8009694
71	0x3fc34582	1.5255587
72	0x3fd93ce4	1.6971707
73	0x3fcbcd96	1.5922115
74	0x4001dda6	2.0291533
75	0x3ffc2e14	1.9701562
76	0x3fdad1ad	1.7095238
77	0x4003ff21	2.0624468
78	0x3fece782	1.850815
79	0x3ff27435	1.8941714
80	0x3e70bc4a	0.23509327
81	0x3e93bec7	0.2885649
82	0x3f8325db	1.0245928
83	0x4004f926	2.0777068
84	0x40008630	2.0081902
85	0x3fcb8b9d	1.5901982
86	0x4005348d	2.0813324
87	0x3ffea6bb	1.9894632
88	0x3fcc5e61	1.5966302
89	0x3ff427ce	1.9074647
90	0x3fae43bf	1.3614424
91	0x3f88a8cc	1.0676513
92	0x3e8b48fb	0.27204117
93	0x3f207ecd	0.6269348
94	0x3eaa3e3e	0.33250612
95	0x3fcc5a53	1.5965065
96	0x3ee69455	0.45035043
97	0x3fd1e8ca	1.6399167
98	0x3f387288	0.7204976
99	0x40104f5d	2.254844
100	0x4003882a	2.0551858
101	0x3e5a07a2	0.21291974
102	0x3ffee566	1.9913757
103	0x3fab38a0	1.3376656
104	0x3e566a1f	0.2093892
105	0x4006695c	2.1001806
106	0x40190fa0	2.3915787
107	0x3fb6904c	1.4262786
108	0x3f456786	0.7711109
109	0x3fa02183	1.2510227
110	0x402d5f75	2.7089512
111	0x3fe919ae	1.8210962
112	0x3f376f89	0.71654564
113	0x3f09fb33	0.53898925
114	0x3f20457f	0.6260604
115	0x3fd693be	1.6763837
116	0x400d0d0f	2.203922
117	0x3f6623e7	0.8989853
118	0x3f333503	0.70002764
119	0x40006345	2.006059
120	0x4017a4b4	2.3694277
121	0x3fc1219b	1.508838
122	0x3fc69070	1.5512829
123	0x3f6ed692	0.9329616
124	0x3fc4962b	1.5358328
125	0x3f73533e	0.9504889
126	0x3fdb6d06	1.7142646
127	0x3fe6d305	1.8033148
128	0x400f8c5b	2.2429416
129	0x3f87d313	1.061129
130	0x3ff1bc45	1.888558
131	0x402f2efc	2.7372427
132	0x3fad1bcc	1.3524108
133	0x3f94e655	1.1632792
134	0x3fe5c1eb	1.7949804
135	0x40104a1b	2.254523
136	0x3f9a72cc	1.2066283
137	0x3f3c9683	0.7366716
138	0x3fa06078	1.252944
139	0x3fbd1412	1.477175
140	0x3fe54668	1.7912111
141	0x3f9a81df	1.2070884
142	0x3fe80ae4	1.8128324
143	0x3ff6d949	1.928506
144	0x3f59dc52	0.8510181
145	0x402c268a	2.6898522
146	0x40094d90	2.145359
147	0x3fb0f2c8	1.3824091
148	0x3fe15d4e	1.7606599
149	0x3ffa14e5	1.9537627
150	0x3f8c8d26	1.0980575
151	0x400193d0	2.0246468
152	0x3fb1303c	1.3842845
153	0x3fbb9d9a	1.4657471
154	0x40222619	2.5335753
155	0x4027828a	2.6173425
156	0x4028b7a9	2.6362097
157	0x3f4710d7	0.7776007
158	0x3fdae972	1.7102492
159	0x400bde73	2.1854522
160	0x3f91bbd1	1.1385442
161	0x3ec71709	0.38884762
162	0x3fded1ce	1.7407777
163	0x3fc12028	1.5087938
164	0x3fee9797	1.8640012
165	0x3f494167	0.7861542
166	0x3fbdbce2	1.4823267
167	0x3fbcaa51	1.4739476
168	0x3fe33066	1.7749145
169	0x3f3502a6	0.70707166
170	0x4010373f	2.253372
171	0x3ebe962f	0.37223956
172	0x3f8628a4	1.0481153
173	0x40193317	2.3937433
174	0x3f9f7767	1.2458314
175	0x3f8d5975	1.1042925
176	0x40220740	2.5316925
177	0x3f893389	1.0718852
178	0x3f187da2	0.595667
179	0x3fa3e0f7	1.2803029
180	0x3f8e1e5b	1.1103014
181	0x3f09d63a	0.5384251
182	0x3fad587d	1.354263
183	0x3fc1f103	1.5151676
184	0x3ff2045e	1.8907583
185	0x3f93dc34	1.1551576
186	0x401f3a92	2.4879498
187	0x4004b9f8	2.0738506
188	0x3fc96b2b	1.573583
189	0x3e84e847	0.25958464
190	0x40054aa6	2.0826812
191	0x3f417de3	0.7558271
192	0x3f6d5291	0.9270411
193	0x3ffa0ef6	1.9535816
194	0x3f77828e	0.96683586
195	0x3fbf25f4	1.4933457
196	0x3ffda15d	1.9814869
197	0x3fe152ab	1.7603353
198	0x3f58a8be	0.8463248
199	0x3fafac1d	1.37244
200	0x3fb6c85a	1.4279892
201	0x3f92fb6a	1.1482975
202	0x40017586	2.022798
203	0x3f412def	0.75460714
204	0x4013d1f5	2.3096898
205	0x400344ec	2.0510817
206	0x3e247cbc	0.16063207
207	0x400cd821	2.2006915
208	0x3ff70807	1.9299325
209	0x3e6124c9	0.21986689
210	0x3f353ec5	0.70798904
211	0x401f035e	2.4845805
212	0x3f617bb1	0.88079363
213	0x3fb14dde	1.3851888
214	0x3f8cdc30	1.1004696
215	0x3e78c702	0.24294665
216	0x3f39be0f	0.7255563
217	0x3e82d054	0.25549567
218	0x3ff932d8	1.9468641
219	0x3f50a992	0.81508744
220	0x3f1f2ade	0.62174785
221	0x3fabcd40	1.3422012
222	0x3fcc3d83	1.5956272
223	0x3f9dac9e	1.2318304
224	0x3fd6fef8	1.679656
225	0x3f28e3b0	0.65972424
226	0x401671e5	2.3507016
227	0x3e3a1515	0.18172105
228	0x3f193f34	0.59862065
229	0x3f6445c1	0.89168936
230	0x3e2104bd	0.15724464
231	0x3f972458	1.1807966
232	0x3f15fc62	0.5858823
233	0x3fa5f2df	1.2964743
234	0x4014db8b	2.3258998
235	0x3f6d50c5	0.9270137
236	0x3fb203ef	1.390745
237	0x401edf93	2.482396
238	0x3fad0ec0	1.3520126
239	0x3ffac2d8	1.9590712
240	0x400152f8	2.020689
241	0x3f3d8e4d	0.7404526
242	0x3fc5652e	1.5421503
243	0x3fd1f667	1.6403321
244	0x3ff20fd0	1.8911076
245	0x3fa16998	1.261035
246	0x3fcec9e6	1.6155365
247	0x3f5328ac	0.82483935
248	0x3f291652	0.66049683
249	0x3fdb585b	1.7136339
250	0x3ff604ea	1.922025
251	0x3fda2fe2	1.7045863
252	0x3f96aaff	1.1770934
253	0x3fd7e2e5	1.6866118
254	0x3fae9ce1	1.3641626
255	0x3ff45d9e	1.909107

bn1.bias f4 [256]
0	0xbf4b7ee9	-0.79490525
1	0xbd96dc03	-0.07366183
2	0xbf05cb39	-0.5226322
3	0xbdc0b09e	-0.09408687
4	0xbf39d9f1	-0.7259818
5	0xbf0655bf	-0.5247459
6	0xbf1c4aca	-0.6105162
7	0xbf13b626	-0.5769981
8	0xbeb3adf2	-0.35093647
9	0xbefbee7a	-0.4920538
10	0xbc78017a	-0.015137071
11	0x3f483e9e	0.78220546
12	0xbe67c0e6	-0.22632179
13	0xbf49f334	-0.78886724
14	0xbed6c26c	-0.41945207
15	0xbc40c9b8	-0.0117668435
16	0xbef21725	-0.47283283
17	0xbf4c94bf	-0.7991447
18	0x3e6b1593	0.22957449
19	0x3b3ca739	0.0028786196
20	0xbcf9e011	-0.030502351
21	0xbdcde5d3	-0.10053601
22	0xbf179aeb	-0.5922076
23	0xbda5ae60	-0.080899
24	0xbf135edf	-0.57566637
25	0xbd9065ef	-0.07050692
26	0xbd69f929	-0.057122383
27	0xbefdf19e	-0.49598402
28	0xbee6bc34	-0.45065463
29	0xbe6db0ee	-0.23212025
30	0xbdbdf56c	-0.09275326
31	0xbd820102	-0.063478485
32	0x3e8a11bd	0.26966658
33	0x3eaea703	0.34111795
34	0xbf6105be	-0.87899387
35	0x3e04175b	0.12899534
36	0xbf57f14a	-0.8435255
37	0x3e6636b8	0.22481811
38	0x3e0b8ea5	0.13628633
39	0xbd7d3285	-0.061815757
40	0xbe73ec8a	-0.23820701
41	0x3e1fbcf2	0.1559942
42	0xbefdcb6b	-0.49569258
43	0xbdb27a97	-0.087147884
44	0x3d058d3d	0.0326054
45	0x3e88c66d	0.26713887
46	0xbf0acfe7	-0.54223484
47	0xbf2997d2	-0.66247284
48	0xbe85fe5c	-0.26170623
49	0xbf3fea5a	-0.7496697
50	0x3d0aacfd	0.03385638
51	0x3df119ea	0.11772521
52	0xbe378ec6	-0.17925557
53	0xbdfa1e26	-0.122127816
54	0x3e9fcb81	0.3120995
55	0xbf334c2d	-0.7003811
56	0xbeeb483d	-0.4595355
57	0xbea2b7b7	-0.31780788
58	0xbef7161a	-0.4825905
59	0xbec81f0d	-0.3908619
60	0xbf5dd98f	-0.86660093
61	0xbf017230	-0.5056486
62	0xbf1d4dab	-0.61446637
63	0x3e8076a6	0.25090522
64	0x3d88c966	0.06679039
65	0x3dbc55c2	0.091960445
66	0xbeb45e54	-0.35228217
67	0x3f283509	0.65705925
68	0xbe8d5ec1	-0.27611354
69	0xbc2359f0	-0.009970173
70	0x3ea02775	0.31280103
71	0xbe2d2198	-0.16907346
72	0x3d63b39c	0.05559121
73	0xbebaf13d	-0.36512175
74	0xbd801136	-0.06253283
75	0x3dc93641	0.09824801
76	0xbe852bbb	-0.26009926
77	0x3ef61ff7	0.48071262
78	0x3f5203f2	0.8203727
79	0xbdba4c5d	-0.090965964
80	0xbf52d784	-0.823601
81	0xbf4e040e	-0.80474937
82	0xbedc1c2d	-0.42990246
83	0xbd979a4a	-0.07402475
84	0xbdf5b982	-0.119982734
85	0xbe258aea	-0.16166273
86	0x3e5f9daf	0.21837495
87	0x3e81e49a	0.25369722
88	0xbcd776f3	-0.026301837
89	0x3ecdd910	0.40204668
90	0xbe31ed66	-0.17375717
91	0xbedfb8d7	-0.4369571
92	0xbf31b1bb	-0.6941182
93	0xbf0607ab	-0.5235545
94	0xbf348644	-0.70517373
95	0xbe93ad43	-0.28843126
96	0xbf282cde	-0.6569346
97	0x3df7da3b	0.12102171
98	0xbf23128e	-0.6370019
99	0x3f0f263a	0.55917704
100	0x3e96d2cc	0.294577
101	0xbf4565a1	-0.771082
102	0x3e5b48bf	0.21414469
103	0xbe54728a	-0.20746818
104	0xbf4511cf	-0.769803
105	0xbe329554	-0.17439777
106	0x3e17612e	0.14783165
107	0xbea73699	-0.32658842
108	0xbeef950a	-0.46793395
109	0xbec51537	-0.38492748
110	0xbecbdc9a	-0.39816743
111	0xbe20b5aa	-0.156943
112	0xbef10c49	-0.47079685
113	0xbf1aadbf	-0.60421365
114	0xbef5f01e	-0.48034757
115	0xbdfde063	-0.12396314
116	0xbe400a36	-0.18753895
117	0xbec4d48e	-0.38443416
118	0xbf04aee5	-0.5182937
119	0x3e5bcb08	0.21464169
120	0xbea32584	-0.3186456
121	0x3f535279	0.8254772
122	0xbb66df86	-0.0035228445
123	0xbebff28c	-0.37489736
124	0xbf291739	-0.6605106
125	0xbf024295	-0.50882846
126	0xbe565afe	-0.20933148
127	0x3eab245c	0.33426178
128	0xbd9f4704	-0.07777217
129	0xbe1e79fd	-0.15476222
130	0x3a336c2e	0.0006844428
131	0x3f238143	0.6386911
132	0xbe442723	-0.19155554
133	0xbe5c749a	-0.21528855
134	0xbe565635	-0.20931323
135	0x3e7bf213	0.24604063
136	0xbe70cb75	-0.23515113
137	0xbefc31d6	-0.49256772
138	0xbe9f8e62	-0.31163317
139	0xbe2442fe	-0.1604118
140	0x3e9e6516	0.30936497
141	0xbf0acc01	-0.54217535
142	0xbd5966a1	-0.05307639
143	0xbe0800e7	-0.13281594
144	0xbf540a2e	-0.8282803
145	0x3e207329	0.1566893
146	0x3de927ee	0.11384569
147	0xbe8b0c6f	-0.27157924
148	0xbddc08d9	-0.10743875
149	0xbcea6795	-0.028613845
150	0xbf21f3c6	-0.63262594
151	0x3db29059	0.087189384
152	0xbe1258bb	-0.1429166
153	0x3e33bccb	0.17552488
154	0xbe1a027b	-0.15040009
155	0x3e80c3c7	0.25149366
156	0x3e1a45f1	0.15065743
157	0xbf214346	-0.62993276
158	0xbd23b3d7	-0.03996643
159	0x3ed43cff	0.41452786
160	0xbe698c4c	-0.22807425
161	0xbf347646	-0.7049297
162	0xbc56ce54	-0.013110716
163	0xbd7b3d6f	-0.061337885
164	0x3d975504	0.07389262
165	0xbee43f45	-0.4457952
166	0xbe07725f	-0.13227223
167	0x3edb03b6	0.4277627
168	0xbdb008ac	-0.08595404
169	0xbf06c3cc	-0.5264251
170	0x3dda95c1	0.106730945
171	0xbf5dee76	-0.8669199
172	0xbe982c36	-0.2972123
173	0x3ea70248	0.32618928
174	0xbee55407	-0.4479067
175	0xbe9095e7	-0.28239366
176	0x3eb17a72	0.3466373
177	0xbe21e85b	-0.15811293
178	0xbf190677	-0.5977549
179	0xbe2bffbc	-0.16796774
180	0xbe5c4ce5	-0.21513708
181	0xbf3eb5ac	-0.7449596
182	0xbeef1a69	-0.46699837
183	0x3f24aafe	0.64323413
184	0xbef321eb	-0.47486815
185	0xbe822a34	-0.25422823
186	0x3d6ba093	0.057526182
187	0x3d057314	0.03258045
188	0x3e99c673	0.30034217
189	0xbf57a6a8	-0.8423867
190	0x3f07965e	0.5296382
191	0xbeb89144	-0.3604833
192	0xbefcecb8	-0.49399352
193	0xbe733ef5	-0.23754485
194	0xbf1cb2ee	-0.61210525
195	0xbe465ab4	-0.19370538
196	0x3edd38ce	0.432074
197	0xbe3f8603	-0.18703465
198	0xbec579fb	-0.38569626
199	0xbeaefb65	-0.34176174
200	0xbcad9200	-0.021187782
201	0xbddf632a	-0.10907586
202	0x3dac5e85	0.08416466
203	0xbf1f1f4b	-0.62157124
204	0xbdea6f01	-0.114469536
205	0x3e28dc01	0.16490175
206	0xbf616143	-0.88039035
207	0xbdb8b008	-0.0901795
208	0xbe199086	-0.14996538
209	0xbf338348	-0.70122194
210	0xbeca52b9	-0.39516237
211	0x3e435e4d	0.19078942
212	0xbf208615	-0.6270459
213	0xbd1dbf85	-0.038512725
214	0xbe9ec837	-0.31012127
215	0xbf3a8a7d	-0.72867566
216	0xbf0efcdc	-0.5585458
217	0xbf4467f7	-0.7672114
218	0xbf04e8d0	-0.51917744
219	0xbf0d4a15	-0.55191165
220	0xbf292941	-0.66078573
221	0xbe9cb493	-0.30606517
222	0x3bd840b3	0.0065995096
223	0xbe71bfbb	-0.23608296
224	0x3e64e865	0.22354276
225	0xbee2747d	-0.44229499
226	0x3e03142d	0.12800665
227	0xbf2bd35a	-0.6711937
228	0xbf224f00	-0.63401794
229	0xbec7acd9	-0.3899906
230	0xbf5523f0	-0.8325796
231	0xbec95cc2	-0.3932858
232	0xbf3c07e3	-0.73449534
233	0xbc2d0f70	-0.010562763
234	0x3c7e1500	0.0155079365
235	0x3e0f3077	0.13983332
236	0xbf13278b	-0.5748221
237	0xbd63fede	-0.055662982
238	0xbcbc0cd6	-0.02295534
239	0xbe1b3683	-0.15157513
240	0x3ecad8e4	0.396186
241	0xbf215502	-0.63020337
242	0x3d965174	0.07339755
243	0xbe950fc5	-0.29113594
244	0xbe7790f1	-0.24176385
245	0xbedd87ad	-0.43267575
246	0xbca5575c	-0.020183258
247	0xbf25b7a5	-0.64733344
248	0xbf16759a	-0.58773196
249	0xbeac3cbf	-0.33640096
250	0x3cf9429f	0.030427275
251	0xbd4a3d60	-0.049374938
252	0x3ce9ec8e	0.02855518
253	0x3ca4ac90	0.020101815
254	0xbe8914b1	-0.267736
255	0x3e592c98	0.21208417

fc2.weight f4 [128, 256]
0	0x3db97c61	0.090569265
1	0x3f383427	0.7195458
2	0x3f8b4e9f	1.0883368
3	0x3e9bcc51	0.3042932
4	0x3e915583	0.28385553
5	0x3f3bc27f	0.7334365
6	0x3fbe07bb	1.4846109
7	0x3f83b0d4	1.0288339
8	0x3ff16f7a	1.8862145
9	0x3fad9279	1.3560325
10	0x3f15fbd1	0.58587366
11	0x3e0b918d	0.13629742
12	0x3fc0e83a	1.507087
13	0x3d9ebc38	0.07750744
14	0x3fb3bbbb	1.4041666
15	0xbe8cfe4d	-0.27537766
16	0x3fc18a87	1.51204
17	0x3eaf2b0e	0.34212536
18	0x3f7bf96f	0.9842748
19	0x3f5c7a7c	0.86124396
20	0x3feab0b9	1.8335181
21	0x3f3f1ad3	0.74650306
22	0x3ef4ca09	0.4781039
23	0x3f5c6bb1	0.86101824
24	0x3f35b48f	0.70978636
25	0x3faf9e62	1.372021
26	0x403b90ef	2.930721
27	0x3e8454a4	0.25845826
28	0x3f28d8e8	0.6595597
29	0x3fe99576	1.8248737
30	0x3fcdda71	1.6082288
31	0xbb20b574	-0.0024522217
32	0x3f0834cb	0.53205556
33	0x3e08306d	0.13299723
34	0x400ebe5f	2.2303693
35	0x3f817324	1.0113263
36	0x3f7ea0f3	0.9946434
37	0x3f2aeb84	0.6676562
38	0x3c25b587	0.01011408
39	0x3f7a8283	0.97855395
40	0x3ede0fac	0.43371332
41	0x3f123dbc	0.5712545
42	0x3f984fa0	1.18993
43	0x3fe6dce8	1.8036165
44	0x3ff02e1f	1.8764075
45	0x3f75984d	0.9593552
46	0x3fe4daf2	1.7879317
47	0x3f89af59	1.0756637
48	0x3f952d6a	1.1654484
49	0x3dde773a	0.108625844
50	0xbf10657e	-0.56404865
51	0x3f9d17e8	1.2272921
52	0x3fd93e25	1.697209
53	0x3f52ff98	0.82421255
54	0x3f47c9b6	0.7804216
55	0x3e87ee7b	0.26549134
56	0x3f1abe4e	0.6044663
57	0xbec59cb8	-0.3859613
58	0x3f8917ac	1.0710349
59	0xbe9fa3bd	-0.3117961
60	0x3f2bf35b	0.67168206
61	0x3fd3a81c	1.6535678
62	0x3f3055e4	0.6888106
63	0x3e890155	0.2675883
64	0x3f461cab	0.77387494
65	0x3f04c900	0.518692
66	0x3f4c0b14	0.79704404
67	0x3f191645	0.59799606
68	0x3fd46a73	1.6594986
69	0x3dfccbc9	0.123435564
70	0x3fdec003	1.7402347
71	0x3f6e6151	0.93117243
72	0xbcad32db	-0.021142414
73	0x3e80a053	0.25122318
74	0x3fa2833b	1.2696298
75	0x3fe05df0	1.7528667
76	0x3f5fbd14	0.87397885
77	0x3f03f13f	0.5153999
78	0x3f89d4e3	1.0768093
79	0xbf8ddcb2	-1.1082976
80	0xbed7b435	-0.42129675
81	0xbe9cb365	-0.30605617
82	0x3ef6ae64	0.48179924
83	0x3fb94975	1.4475542
84	0x4003416c	2.050868
85	0x3f64e5d1	0.8941317
86	0x3edd740f	0.43252608
87	0x3f793559	0.9734703
88	0x3f1ce153	0.6128132
89	0x3f359e0c	0.70944285
90	0x3f994a85	1.1975867
91	0x3fb37e9d	1.4023014
92	0x3edba66f	0.42900416
93	0x3fc13b83	1.5096287
94	0x3f99cb88	1.2015238
95	0x3fde94bc	1.738914
96	0x3f48eff5	0.78491145
97	0x3f3720d6	0.7153448
98	0x3f990d6f	1.1957225
99	0x3fc73fb2	1.5566313
100	0x3fba0741	1.4533464
101	0x3eb2d446	0.34927577
102	0x3f21ce9a	0.63205874
103	0x3f76b636	0.9637178
104	0x3d615b82	0.05501891
105	0x3fe57560	1.7926445
106	0xbe235cf0	-0.15953422
107	0x4014910d	2.3213532
108	0x3fa71fba	1.3056557
109	0x3f1a84a2	0.6035863
110	0x3f82aa02	1.0208132
111	0x3fb875a3	1.44109
112	0x3fd1d7f8	1.6394033
113	0x3fa76502	1.30777
114	0x3e700844	0.23440653
115	0x3f9cea70	1.2259045
116	0x3f8c2279	1.094802
117	0x3f97c322	1.1856425
118	0x3fa1a155	1.262736
119	0x3f99c67c	1.2013698
120	0x3fa70e07	1.3051156
121	0x3e70646e	0.23475811
122	0x3eaa4913	0.33258876
123	0x3f94c7a2	1.1623423
124	0x3ffb8987	1.9651345
125	0x3fab273d	1.337135
126	0xbe3e4ece	-0.18584749
127	0xbd88c821	-0.066787966
128	0x3f95df50	1.1708775
129	0x3ffccce8	1.9750032
130	0x3fc67696	1.550494
131	0x3f272cb0	0.6530256
132	0x3f960167	1.1719178
133	0x3f8f3057	1.1186627
134	0x3fc7247b	1.5558008
135	0x3f25f6ec	0.648299
136	0x3eb90856	0.36139172
137	0x40013c91	2.0193217
138	0x40552c6e	3.3308368
139	0x3fbf8ab7	1.4964207
140	0x3f25bb76	0.6473917
141	0x3fa6b45f	1.3023795
142	0x3f7c0c07	0.9845585
143	0x3feee258	1.8662825
144	0x3c2686e8	0.010164
145	0x3fc3d804	1.5300298
146	0xbe099647	-0.13436233
147	0x3f9be417	1.2178982
148	0x3f21ea3d	0.63248044
149	0xbd027b00	-0.031855583
150	0x3e3a8d47	0.18217956
151	0x3f173188	0.59059954
152	0x3f1ccdd5	0.61251575
153	0x4007384b	2.1128109
154	0x402bed71	2.6863673
155	0x3fa3a3e7	1.2784394
156	0x3f588121	0.84572035
157	0x3fa08ca7	1.2542924
158	0x3ecfe8cc	0.40607297
159	0x3f8e5fd4	1.1122994
160	0x4000cac8	2.0123768
161	0x3f759899	0.9593597
162	0x3fa90275	1.3203875
163	0x3fdc609e	1.7216985
164	0x3ee1f514	0.44132292
165	0x3ccbe550	0.024889618
166	0xbe1ac5c3	-0.15114503
167	0x3e768aa9	0.24076332
168	0x3f2f514e	0.68483436
169	0x3f22b880	0.63562775
170	0x3f411ddc	0.75436187
171	0x3f1b6aa6	0.6070961
172	0x3f47878b	0.779412
173	0x3e128532	0.14308622
174	0x3fe2c6e2	1.7716944
175	0x3f5d765d	0.86508733
176	0x3f0da670	0.5533209
177	0x3fc1d75d	1.5143849
178	0x3fc3be57	1.5292462
179	0x3fa73c3d	1.3065258
180	0x3f428f2f	0.7599973
181	0x3e1e9851	0.15487792
182	0x3f5f8cfb	0.87324494
183	0x3ec164f3	0.3777233
184	0x3fe2135a	1.7662156
185	0xbe772899	-0.2413658
186	0x3f07ab87	0.52996105
187	0x3fbd9283	1.4810337
188	0x3f768a2e	0.96304595
189	0xbf01a73e	-0.50645816
190	0x3f9abfcf	1.2089785
191	0x3da1c171	0.07898224
192	0x3fedc006	1.8574226
193	0x3f385938	0.72011137
194	0x3f940ffc	1.1567378
195	0x3e9c8064	0.30566704
196	0x3f0ec17d	0.5576399
197	0x3f6ddccf	0.9291505
198	0x401aad71	2.416836
199	0xbc8147a2	-0.015781227
200	0x3f4c82b5	0.79886943
201	0x3e83a510	0.2571187
202	0x3f7434e4	0.95393205
203	0x3fc6d1ba	1.5532753
204	0x3e441b5e	0.19151065
205	0x3f05f8ee	0.5233296
206	0x3dfcfee3	0.12353303
207	0x4001022a	2.015757
208	0x3f9ce6f5	1.2257982
209	0xbe36c724	-0.17849404
210	0x3f6cda61	0.9252072
211	0x3f4fdfdd	0.81200963
212	0x3f5c62a1	0.86087996
213	0x3f841a70	1.0320568
214	0x3f9628da	1.1731217
215	0x3ca77535	0.02044163
216	0x3f81634f	1.0108432
217	0x3e1008d1	0.14065863
218	0x40047b74	2.070035
219	0x400ccfa6	2.2001739
220	0x3f83065c	1.0236316
221	0x3f2744b0	0.65339184
222	0x3f8f33e4	1.1187711
223	0x3e5f4ef4	0.21807462
224	0x3f963569	1.173505
225	0x3f07ebb9	0.5309406
226	0x3fb9d3d9	1.4517776
227	0x3c749451	0.0149279395
228	0x402de66c	2.7171888
229	0x3fc7e971	1.5618116
230	0xbe986d8e	-0.29771084
231	0x3ff5951e	1.9186132
232	0x3fa11076	1.2583148
233	0x3fbb61d2	1.4639227
234	0x3f6c1dde	0.92233074
235	0xbe9b383f	-0.3031635
236	0x40152ac4	2.3307352
237	0x4002aa1b	2.0416324
238	0x3e28a194	0.16467887
239	0x3fe730d7	1.806178
240	0x3e832d5f	0.25620553
241	0x3f5b74d6	0.8572515
242	0x3f838866	1.0276
243	0x3fa2acc2	1.2708972
244	0x3f0905f2	0.53524697
245	0x3fac91cc	1.3481994
246	0x3ffd99b9	1.9812537
247	0x3f81eca4	1.0150342
248	0x3f362a9c	0.71158767
249	0x3f585282	0.84500897
250	0x3edc05fe	0.42973322
251	0x3f6ad21c	0.9172685
252	0x3f538318	0.8262191
253	0x3e2d7e95	0.16942818
254	0x3fe56273	1.7920669
255	0x3f71feea	0.94529593

fc2.bias f4 [128]
0	0xbf5e8be4	-0.86932206
1	0x3ebbadcb	0.3665603
2	0x3ee2da6f	0.44307277
3	0x3f16abf3	0.58856124
4	0x3e1edfa6	0.15515003
5	0x3f4c49de	0.7980021
6	0x3f203521	0.6258107
7	0x3edfc5cd	0.43705598
8	0x3eda69bf	0.42658803
9	0x3ef3a8d9	0.47589758
10	0x3f44956e	0.7679051
11	0x3e85fc97	0.26169273
12	0x3e955477	0.29166004
13	0x3f52620a	0.82180846
14	0x3f5ea43b	0.86969346
15	0x3e20ec29	0.15715088
16	0x3f136f99	0.5759216
17	0x3f8235c8	1.0172663
18	0x3e4ec55e	0.20192477
19	0x3d54b126	0.051926754
20	0x3e3e6c80	0.18596077
21	0x3ef043d4	0.4692675
22	0x3f8130e0	1.009304
23	0x3ec9c37b	0.39406952
24	0x3e78e412	0.24305752
25	0x3f553ad5	0.83292896
26	0x3fb472ab	1.4097494
27	0x3f3f50ba	0.74732554
28	0x3f05b01e	0.5222186
29	0x3eeb899e	0.4600343
30	0x3f780438	0.9688144
31	0x3f6117ea	0.87927115
32	0x3f0df5ce	0.55453193
33	0x3ea93097	0.33044884
34	0x3f3a2fbe	0.727291
35	0x3f63cb20	0.8898182
36	0x3e7ed8b1	0.24887349
37	0x3f6ee1d4	0.93313336
38	0x402f22ce	2.7364993
39	0x3e3d071d	0.18459745
40	0xbd916727	-0.07099753
41	0x3f261c5e	0.64887035
42	0x3ee5faef	0.4491801
43	0x3f1cbdc7	0.6122708
44	0x3ece23a9	0.40261582
45	0x3f8dea92	1.108721
46	0x3f824a55	1.0178934
47	0xbee52e55	-0.4476191
48	0x3e9a86a9	0.30180863
49	0x403a00fa	2.9063096
50	0x3f5408d6	0.8282598
51	0x3ee7edc0	0.45298576
52	0x3f39926f	0.72489065
53	0x3f54edb1	0.8317519
54	0x3f3856ac	0.7200725
55	0x400b1b6a	2.1735482
56	0x3f8cfc61	1.101452
57	0xbfad031c	-1.3516574
58	0x3edcf31f	0.43154237
59	0x3f5cdb16	0.862718
60	0x3e5c3b48	0.21506989
61	0x3f1dfecb	0.6171691
62	0x3d3aeffb	0.04563902
63	0x3ff05105	1.8774725
64	0x3f681b41	0.90666586
65	0x3f311605	0.69174224
66	0x3f389ce6	0.7211441
67	0x3f41ae78	0.75656843
68	0x3f386319	0.7202621
69	0xbe383f42	-0.17992881
70	0x3e7e5695	0.24837716
71	0x3f3b793d	0.7323187
72	0x3f339384	0.70146966
73	0x3e3f31cc	0.1867134
74	0x3e895f7f	0.2683067
75	0x3f3850f4	0.71998525
76	0x3ef7f820	0.48431492
77	0x3f1c458f	0.6104364
78	0x3f59f20d	0.85134965
79	0x401aa4f0	2.416317
80	0x3e9c94a3	0.3058215
81	0x3f625705	0.8841403
82	0x3f8921e7	1.0713471
83	0x3f441744	0.76598
84	0x3f59c299	0.8506256
85	0x3f0bc6fd	0.5460051
86	0x3f2f84e8	0.68562174
87	0x3f17356e	0.590659
88	0x3ef43bc6	0.47701854
89	0x40154ff2	2.3330045
90	0x3f9345f1	1.150572
91	0x3e70dd4f	0.23521923
92	0x3ed172b4	0.40907824
93	0x3f2a2857	0.66467804
94	0x3f6864b4	0.9077866
95	0x3f1b0b79	0.6056438
96	0xbf2fec35	-0.687198
97	0x3f54c67a	0.8311535
98	0x3f24e7ea	0.6441637
99	0xbebec9b5	-0.37263265
100	0x3d5fa6c2	0.054602392
101	0x4026605a	2.5996308
102	0x3f67e744	0.9058726
103	0x3f512a3b	0.81705064
104	0xbf0afad1	-0.54288965
105	0x3ec1f4b9	0.3788202
106	0x3f76e1f9	0.96438557
107	0x3f5dabdf	0.8659038
108	0x3fa01c09	1.2508556
109	0x3ea198c9	0.31561878
110	0x3ede2d50	0.43393946
111	0x3f506e3e	0.81418216
112	0x3f626370	0.8843298
113	0x3eb5419f	0.35401627
114	0x3f04679d	0.517206
115	0x3f7e10ea	0.9924456
116	0x3e880704	0.26567852
117	0x3f46a0f4	0.77589345
118	0x3f6c77aa	0.9237009
119	0x3f86a5a5	1.0519301
120	0x3f47348b	0.7781455
121	0x3eed5eb4	0.46361315
122	0x3f6bfdf1	0.9218436
123	0x3f8d2121	1.1025735
124	0x3f4444c0	0.76667404
125	0x3e9de469	0.30838326
126	0x3f5cb301	0.8621064
127	0x3f96f85f	1.1794547

bn2.weight f4 [128]
0	0x3fc30a50	1.5237522
1	0x3fadff42	1.3593524
2	0x3f8f040c	1.117311
3	0x3fbe79ad	1.4880883
4	0x3f583107	0.8444981
5	0x4000bc3d	2.0114892
6	0x3f1acda3	0.60470027
7	0x3f6ed3f7	0.9329218
8	0x40160fac	2.3447065
9	0x3f950bb9	1.1644202
10	0x4009856d	2.1487687
11	0x3f64f243	0.8943216
12	0x3f46db0e	0.77678
13	0x401beed4	2.436452
14	0x3f17f75e	0.5936183
15	0x3fbe7d40	1.4881973
16	0x3f9df502	1.2340395
17	0x3f52d47c	0.82355475
18	0x3f84d55e	1.0377614
19	0x3fc5fb22	1.5467265
20	0x3f86f78a	1.0544293
21	0x3fa9f01e	1.3276403
22	0x3fca2251	1.5791723
23	0x3f23b261	0.6394406
24	0x3fab75f6	1.3395374
25	0x3fd50b31	1.664404
26	0x3f497aa6	0.7870277
27	0x3f0511f0	0.51980495
28	0x3ff4264d	1.9074188
29	0x3f2ca82b	0.67444104
30	0x3f88ecc1	1.0697252
31	0x3f2e377c	0.6805341
32	0x3fe23073	1.7671036
33	0x400a77e9	2.1635687
34	0x3f4c7ef4	0.79881215
35	0x3f187e04	0.59567285
36	0x3fa8372f	1.3141841
37	0x402b9011	2.680668
38	0x3e3dc1e7	0.18530999
39	0x3fb64e6c	1.4242682
40	0x3f9da7e5	1.2316862
41	0x3f8cd854	1.1003518
42	0x3f7c20ad	0.9848736
43	0x400c76ba	2.1947465
44	0x3f625e71	0.88425356
45	0x3fc10241	1.5078813
46	0x3fc92f58	1.5717573
47	0x3f9ce877	1.2258443
48	0x3f99e481	1.2022859
49	0x3e0cf745	0.13766201
50	0x40164d2c	2.3484602
51	0x3fc251cf	1.5181216
52	0x3f932e09	1.1498424
53	0x3fd51ea6	1.6649978
54	0x3fb53700	1.415741
55	0x3e901391	0.28139928
56	0x3f43052e	0.7617978
57	0x3fa1b6a0	1.2633858
58	0x3f56b989	0.83876854
59	0x3ff5df6d	1.9208809
60	0x3f5fe7e7	0.8746323
61	0x3fa9063f	1.3205031
62	0x3fd7cbc1	1.6859056
63	0x3e8578ab	0.26068625
64	0x3fb4439d	1.4083134
65	0x40051c3f	2.079849
66	0x400b8909	2.180239
67	0x3f3fd7c1	0.7493859
68	0x4013d1c3	2.3096778
69	0x3ff59b5d	1.9188038
70	0x3ef0675a	0.4695385
71	0x3fd395a3	1.653004
72	0x3ff8ad1c	1.9427829
73	0x3f8ca6c6	1.0988395
74	0x3fdc7381	1.7222749
75	0x4016fd20	2.3591995
76	0x3f4f49d6	0.8097204
77	0x3faf2b97	1.3685178
78	0x3ec63dc9	0.38719013
79	0x3e726353	0.23670702
80	0x3f2602df	0.6484813
81	0x3f07e2db	0.5308053
82	0x3f0845e7	0.5323166
83	0x3fea89e9	1.8323337
84	0x3fb026c1	1.3761827
85	0x3f92f034	1.1479554
86	0x400bb6c5	2.1830304
87	0x40100543	2.2503211
88	0x3ff2d570	1.8971386
89	0x3e40ea89	0.18839468
90	0x3f144df5	0.57931453
91	0x3f940133	1.1562866
92	0x3f80a547	1.0050439
93	0x3ff5a1af	1.9189967
94	0x3fa3bcfd	1.279205
95	0x3ffa7eec	1.9569983
96	0x3f89de5f	1.0770987
97	0x3f64bc57	0.89349884
98	0x40005c79	2.005644
99	0x3f4a69af	0.7906751
100	0x3f800edc	1.0004535
101	0x3e5fda52	0.21860626
102	0x3fb9827a	1.4492943
103	0x3f42de03	0.76120013
104	0x3f49f794	0.788934
105	0x3f1842a2	0.59476674
106	0x40076f22	2.116158
107	0x3fb1a14c	1.3877349
108	0x3ed9dce0	0.42551327
109	0x3f68065d	0.9063471
110	0x3fd75b0c	1.682466
111	0x3fbe665d	1.4874989
112	0x3f8bc0b7	1.0918187
113	0x3f5e73a9	0.86895233
114	0x3f7b56aa	0.98179114
115	0x400ce85e	2.2016826
116	0x3fa3564d	1.2760712
117	0x3f91a052	1.1377051
118	0x3fc22175	1.516646
119	0x3f3b178c	0.73082805
120	0x3ffb1b5b	1.9617723
121	0x3f4bbb0a	0.79582274
122	0x3fa5bd99	1.2948486
123	0x3f0a004f	0.5390672
124	0x3f9e4921	1.2366067
125	0x3f9fa865	1.2473265
126	0x3f80159e	1.0006597
127	0x3f851da6	1.0399673

bn2.bias f4 [128]
0	0xbf8c9f5b	-1.0986131
1	0xbe7b9c7e	-0.24571416
2	0xbe8ed6c5	-0.2789823
3	0xbeaf4570	-0.34232664
4	0xbf47b802	-0.7801515
5	0xbd1ff58b	-0.039052527
6	0xbf37fbc3	-0.7186853
7	0xbf0b5fb6	-0.5444292
8	0xbf01a348	-0.5063977
9	0xbec4ca11	-0.38435414
10	0x3e524399	0.20533599
11	0xbf387b4a	-0.72063124
12	0xbf3f4815	-0.74719363
13	0x3e9ad17c	0.3023795
14	0xbf10577a	-0.5638348
15	0xbf559bdd	-0.83440953
16	0xbe0798c8	-0.13241875
17	0xbe83d2c3	-0.25746736
18	0xbf00c026	-0.50293195
19	0xbeb8d564	-0.36100304
20	0xbf2b21b5	-0.6684831
21	0xbe111a80	-0.14170265
22	0xbd88bfba	-0.06677194
23	0xbf589bc9	-0.8461271
24	0xbef64956	-0.48102826
25	0x3f105cb2	0.5639144
26	0xbec3d7b1	-0.38250497
27	0xbf40a9df	-0.752592
28	0xbeeb849b	-0.45999607
29	0xbf32b5b9	-0.69808537
30	0x3eba0985	0.36335388
31	0xbf104e41	-0.56369406
32	0x3eae2e89	0.34019879
33	0xbec489bb	-0.3838633
34	0xbeff7956	-0.4989726
35	0xbf56af4f	-0.8386125
36	0xbf01c60b	-0.50692815
37	0x3dee0328	0.11621696
38	0xbf61b9f9	-0.88174397
39	0xbeac4e68	-0.3365357
40	0xbf56175d	-0.836294
41	0xbea9428b	-0.3305858
42	0xbf605cb3	-0.8764145
43	0xbd827ddc	-0.06371662
44	0xbf27e75b	-0.65587395
45	0xbc53e680	-0.012933373
46	0x3ef64680	0.48100662
47	0xbf9ce8bd	-1.2258526
48	0xbf0f46e8	-0.5596757
49	0xbf5c0c4b	-0.8595626
50	0x3eaec1e9	0.34132317
51	0xbeef7dbf	-0.46775624
52	0xbe847228	-0.25868344
53	0x3f0a8583	0.5410997
54	0x3db3c616	0.08778016
55	0xbf5ef48f	-0.87091917
56	0xbf09aa21	-0.5377522
57	0xbfee363c	-1.8610301
58	0xbf3a5ef7	-0.72801155
59	0xbe481a24	-0.19541222
60	0xbf229d0d	-0.6352089
61	0xbf009808	-0.5023198
62	0xbf2bd2cd	-0.6711853
63	0xbf439db6	-0.7641252
64	0x3f29b0e1	0.6628552
65	0x3d9aa724	0.07551411
66	0xbc94072b	-0.018069824
67	0xbf3e84fa	-0.74421656
68	0x3d071bac	0.032985374
69	0xbf939268	-1.1529055
70	0xbf87b162	-1.0601008
71	0xbe208ac2	-0.15677932
72	0x3d296f73	0.041366052
73	0xbf48e57d	-0.7847517
74	0xbe186fcd	-0.14886399
75	0x3ed70caf	0.42001864
76	0xbf4ae2bb	-0.79252213
77	0xbf563c06	-0.8368534
78	0xbf482ad5	-0.78190356
79	0xbf4b16c7	-0.7933163
80	0xbf9424a1	-1.1573678
81	0xbf386363	-0.7202665
82	0xbf12eeee	-0.5739583
83	0x3d011c79	0.031521294
84	0x3d85a3b1	0.06525362
85	0xbf1b20e3	-0.60597056
86	0x3e1de2d7	0.15418564
87	0xbe591dfb	-0.21202843
88	0xbe560faf	-0.2090442
89	0xbf7a0664	-0.97666
90	0xbf1c29ea	-0.61001456
91	0xbf0619e8	-0.5238328
92	0xbf378622	-0.71689045
93	0x3da579d5	0.08079878
94	0x3e2f6038	0.17126548
95	0xbd247ab6	-0.04015609
96	0xbfb5be9d	-1.4198796
97	0xbf00aeac	-0.5026653
98	0x3e58750a	0.21138397
99	0xbfa65694	-1.2995172
100	0xbf339dbb	-0.7016255
101	0xbf4ff1c0	-0.81228256
102	0x3f052612	0.52011216
103	0xbf29a219	-0.66262966
104	0xbf996aeb	-1.1985754
105	0xbf2f6ea5	-0.68528205
106	0x3ca6fb34	0.020383455
107	0xbe3adc61	-0.1824813
108	0xbf8858b7	-1.0652074
109	0xbf08f3f1	-0.53497225
110	0xbecde84a	-0.40216285
111	0x3e998169	0.29981545
112	0x3dac1667	0.084027104
113	0xbf58e441	-0.8472329
114	0xbf3866e0	-0.72031975
115	0x3eaea459	0.34109762
116	0xbee21eba	-0.44164068
117	0x3ee2dfe7	0.4431145
118	0x3e133825	0.14376886
119	0xbf0fee28	-0.5622277
120	0xbc650897	-0.013979099
121	0xbf17254a	-0.59041274
122	0x3ee347f5	0.44390836
123	0xbf22a924	-0.6353934
124	0xbcbfeb71	-0.023427697
125	0xbf3ae8bd	-0.7301138
126	0xbe800a66	-0.25007933
127	0xbebe3b53	-0.37154636

fc3.weight f4 [64, 128]
0	0x3e4fb005	0.2028199
1	0xbeb101d7	-0.34571716
2	0x3ea30acc	0.31844175
3	0xbf830e3c	-1.0238719
4	0x3ed3c086	0.4135782
5	0xbf4eb2a3	-0.8074133
6	0xbe34ead8	-0.17667711
7	0x3f1415c3	0.57845706
8	0x3f83f74c	1.0309844
9	0xbf4bb585	-0.7957385
10	0x3e922bfb	0.2854918
11	0x3de86c84	0.11348823
12	0x3f69e9af	0.913722
13	0xbe0c09d3	-0.13675623
14	0x3e9b78c2	0.30365568
15	0x3f341dde	0.70358074
16	0xbe204769	-0.15652241
17	0x3e0ed537	0.13948523
18	0xbe795c62	-0.24351647
19	0x3e5c9ded	0.21544619
20	0x3ecdb121	0.401742
21	0xbe51d4ac	-0.20491284
22	0xbc91c21f	-0.01779276
23	0x3e37315e	0.17889926
24	0x3f4272e4	0.7595656
25	0xbe946ebc	-0.28990734
26	0xbec004b0	-0.37503576
27	0x3e6b5d3f	0.2298479
28	0xbfc0bb07	-1.5057076
29	0xbf52e050	-0.82373524
30	0x3d9092ee	0.070592746
31	0x3ea3ffed	0.32031193
32	0xbfad0f13	-1.3520225
33	0xbcbf75ff	-0.023371695
34	0xbf0601e5	-0.5234664
35	0x39c1baf7	0.00036951128
36	0x3f2f68d8	0.68519354
37	0xbf07e278	-0.5307994
38	0xbe10f52a	-0.14156023
39	0xbe03c846	-0.12869367
40	0x3f74c6a8	0.95615625
41	0x3e01d2d2	0.12678078
42	0xbf0eba40	-0.55752945
43	0xbf06d52e	-0.52669036
44	0xbf540172	-0.82814705
45	0x3d660513	0.056157183
46	0xbecf813b	-0.40528283
47	0xbf8fc9f6	-1.1233509
48	0xbfa23a64	-1.267407
49	0x3dd6ebdf	0.104942076
50	0xbefb7d3b	-0.4911898
51	0x3f1ae2f4	0.60502553
52	0xbf18eb55	-0.5973409
53	0xbf227cef	-0.63471884
54	0xbd20d006	-0.039260887
55	0x3e13cdd1	0.14433981
56	0x3e41aae0	0.1891284
57	0x3e6e64f7	0.23280703
58	0x3e6c1339	0.23054208
59	0xbe6d8e35	-0.23198779
60	0x3d7ddcbe	0.061978094
61	0x3ea962c7	0.33083174
62	0xbf6c7222	-0.9236165
63	0x3daeae52	0.08529343
64	0xbf61e4fc	-0.8824003
65	0xbfa35794	-1.2761102
66	0x3e8030c0	0.25037193
67	0xbec63637	-0.38713238
68	0xbb07d4ef	-0.0020726284
69	0xbf52c1f8	-0.8232722
70	0x3edfb2fa	0.43691236
71	0xbefca5a3	-0.4934512
72	0xbf2f725d	-0.6853388
73	0x3f04b770	0.51842403
74	0x3e74050a	0.23830047
75	0x3e1605c9	0.14650644
76	0x3e37b4ba	0.17940035
77	0x3f8fe775	1.124251
78	0xbeab688c	-0.334782
79	0xbee96cf2	-0.4559093
80	0xbf0b6f95	-0.54467136
81	0xbf2cefae	-0.6755322
82	0x3f91c80e	1.1389177
83	0x3d978799	0.0739891
84	0xbf06cb46	-0.5265392
85	0x3ea248d8	0.316962
86	0xbf838f45	-1.0278097
87	0xbeaeb58e	-0.3412289
88	0xbf1ba23c	-0.60794425
89	0xba323ee0	-0.000679953
90	0x3ea9b50f	0.3314595
91	0x3f4af137	0.79274315
92	0xbeee58cd	-0.46552125
93	0xbf53c048	-0.8271527
94	0xbe80217e	-0.25025553
95	0x3f1b068e	0.60556877
96	0x3eae48f1	0.34040025
97	0xbe4156c1	-0.1888075
98	0xbf511c34	-0.8168366
99	0x3fb291a7	1.39507
100	0x3f364eb8	0.71213865
101	0x3c87c340	0.016572595
102	0xbef42b3e	-0.4768924
103	0x3dcdb73a	0.10044713
104	0x3df10607	0.11768728
105	0xbe85f55b	-0.26163754
106	0xbf9d2fee	-1.2280252
107	0x3f498f7f	0.7873458
108	0xbd9ae092	-0.07562365
109	0xbe2878d0	-0.16452336
110	0x3dc22b36	0.09480898
111	0xba1edfe8	-0.00060605863
112	0xbdc1e0d2	-0.09466709
113	0x3d322bc3	0.043498766
114	0x3f0c7a1f	0.5487384
115	0x3e998282	0.29982382
116	0x3f11f98a	0.5702139
117	0x3dd3c9fd	0.103412606
118	0x3d8883c2	0.06665756
119	0xbe85164b	-0.2599357
120	0x3f1c1506	0.6096958
121	0x3d681b35	0.05666657
122	0x3e04b6d1	0.12960364
123	0xbe8d4199	-0.2758911
124	0xbf22a0f2	-0.63526833
125	0xbf7d786e	-0.99011886
126	0xbee53b7f	-0.44771954
127	0xbe81efc1	-0.2537823
128	0xbf990df0	-1.1957378
129	0xbc5bf794	-0.013425726
130	0xbf41cdec	-0.75704837
131	0x3ea97646	0.33098048
132	0xbeaf4bc8	-0.34237504
133	0xbf1b4335	-0.60649425
134	0xbf5e4eaf	-0.8683881
135	0xbfaf809e	-1.3711126
136	0xbcbb7447	-0.022882594
137	0xbf5d2a7d	-0.86392957
138	0xbde940df	-0.11389326
139	0xbf5bbceb	-0.8583514
140	0xbeede99c	-0.46467292
141	0x3e09cb70	0.13456511
142	0xbf23d814	-0.64001584
143	0x3f08cb0a	0.53434813
144	0xbeac4825	-0.33648792
145	0xbbfb6dc4	-0.007672997
146	0xbf7eec1a	-0.9957901
147	0x3d5ace29	0.053419266
148	0xbf62c828	-0.88586664
149	0x3ed8d46d	0.42349568
150	0xbe641c07	-0.22276317
151	0xbf01558e	-0.5052117
152	0xbed0a64b	-0.4075187
153	0x3e84f698	0.25969386
154	0x3d9d0bd2	0.0766827
155	0xbfb3b98c	-1.4041
156	0xbf4d1fe8	-0.8012681
157	0xbf1542ec	-0.5830524
158	0x3f19d007	0.6008305
159	0x3dcc1266	0.09964447
160	0x3f4bb9e1	0.79580504
161	0xbf709f59	-0.93993145
162	0xbef31181	-0.47474292
163	0xbeee6354	-0.46560156
164	0x3e591b76	0.21201882
165	0xbf932b4e	-1.149759
166	0x3c7fa00e	0.015602125
167	0xbea9de6c	-0.33177507
168	0x3e0c1051	0.13678099
169	0x3e4f78ed	0.20260973
170	0xbfdb90c1	-1.715355
171	0x3f86c74d	1.0529572
172	0xbf35d61d	-0.71029836
173	0xbf4c7220	-0.7986164
174	0x3f868709	1.050996
175	0xbfc62e48	-1.5482874
176	0x3e00a5a4	0.12563187
177	0x3e2105d9	0.15724887
178	0x3deb522a	0.11490281
179	0x3ed4caea	0.4156106
180	0x3edd52de	0.43227285
181	0x3f139f16	0.5766462
182	0xbe89ef1f	-0.26940247
183	0xbd5afac8	-0.05346182
184	0xbf57df85	-0.8432544
185	0xbfa8dd89	-1.3192607
186	0xbf9fc372	-1.248152
187	0x3f438a11	0.7638255
188	0xbfa14898	-1.2600279
189	0xbf6c1682	-0.92221844
190	0xbf4938aa	-0.7860209
191	0xbf496517	-0.78669876
192	0x3f13397d	0.57509595
193	0x3d08816d	0.033326555
194	0x3f6064fe	0.876541
195	0x3db979d3	0.09056439
196	0xbf117203	-0.56814593
197	0xbe7d667d	-0.24746127
198	0xbfe04bc8	-1.7523127
199	0x3ed7c6a9	0.42143753
200	0x3ecbaf98	0.39782405
201	0xbdaf6f73	-0.08566179
202	0xbf60e91d	-0.878557
203	0xbf879d1c	-1.0594821
204	0xbeb8cf3a	-0.360956
205	0x3e5ff4c6	0.21870717
206	0xbeb81e55	-0.35960642
207	0x3c86af01	0.01644087
208	0xbf765394	-0.9622128
209	0xbf3c4f36	-0.73558366
210	0xbf6703d1	-0.902402
211	0xbfb4ff2c	-1.4140372
212	0x3f17c03a	0.5927769
213	0x3f3f05fb	0.746185
214	0x3ec4b9cf	0.3842301
215	0xbed149e2	-0.4087668
216	0xbca4199b	-0.02003174
217	0x3cfe1029	0.031013565
218	0xbd91f68f	-0.071271054
219	0x3e3930a2	0.18084958
220	0xbf9d9c42	-1.2313311
221	0xbeb9ba02	-0.36274725
222	0x3f284d02	0.65742505
223	0x3e627d14	0.22118026
224	0xbef21088	-0.47278237
225	0x3e38addb	0.1803507
226	0x3cc2fd66	0.02380247
227	0xbfc09cb1	-1.5047818
228	0xbffd2ed6	-1.9779918
229	0x3d8bda57	0.068287544
230	0x3f92ad16	1.1459072
231	0xbeb0b43a	-0.34512502
232	0xbf9be8e0	-1.2180443
233	0xbf3d90d9	-0.74049145
234	0x3f82555c	1.01823
235	0xbf9129e0	-1.1340904
236	0x3e021990	0.12705064
237	0xbd5bfb43	-0.05370642
238	0xbfd64246	-1.6738975
239	0xbe9264d3	-0.28592548
240	0xbe55c047	-0.20874129
241	0xbf51523e	-0.81766117
242	0x3e86cb86	0.2632715
243	0x3f25d33d	0.6477545
244	0xbe9cc48d	-0.30618706
245	0xbecbdc82	-0.39816672
246	0xbf427198	-0.7595458
247	0x3e6a4504	0.2287789
248	0x3f1bdd1d	0.6088427
249	0xbfb2b900	-1.3962708
250	0x3e2c872c	0.16848439
251	0xbf0a0638	-0.5391574
252	0xbf1239f1	-0.5711966
253	0xbf22b6e5	-0.63560325
254	0x3ee4780c	0.44622838
255	0xbf3e0790	-0.7423029

fc3.bias f4 [64]
0	0xbf4897e2	-0.78356755
1	0x3f4ac46e	0.7920598
2	0xbf0f99c7	-0.5609402
3	0xbd9952ce	-0.07486497
4	0xbd04b473	-0.032398652
5	0x3d08dd6d	0.033414293
6	0xbf502709	-0.8130956
7	0x3f298e11	0.662324
8	0xbf87a23a	-1.0596383
9	0x3e8c997c	0.2746085
10	0xbee15eab	-0.44017538
11	0xbea769a4	-0.32697785
12	0xbef11ee1	-0.4709387
13	0x3f89bcc9	1.0760738
14	0x3e90e909	0.28302792
15	0xbf1eca4d	-0.62027436
16	0xbf8c5a9c	-1.0965152
17	0x3eee2dd1	0.4651933
18	0xbe18e1b6	-0.14929852
19	0x3f1930e1	0.5984021
20	0xbf22962c	-0.63510394
21	0x3f18dc3b	0.59711045
22	0x3f1af2ac	0.6052654
23	0xbf5b8386	-0.85747564
24	0x3f1170ce	0.5681275
25	0x3eb6865f	0.35649392
26	0xbcf4aee9	-0.02986856
27	0xbf822ca8	-1.0169878
28	0xbf80f596	-1.0074947
29	0x3e6bd494	0.23030311
30	0xbf8f8aa4	-1.1214185
31	0xbf15e463	-0.58551615
32	0xbcd7f657	-0.026362581
33	0x3d3230d5	0.0435036
34	0xbe88b6f8	-0.26702094
35	0xbd472591	-0.04861981
36	0x3eef1773	0.46697578
37	0x3e7da035	0.24768145
38	0xbec9dd68	-0.39426732
39	0xbf8c6136	-1.0967166
40	0x3e52a48a	0.20570579
41	0x3ebf482e	0.37359756
42	0xbeb87fd0	-0.36035013
43	0x3ed5aa9a	0.4173172
44	0x3ea73ab4	0.32661974
45	0x3f1df8a0	0.61707497
46	0x3d8228c0	0.06355429
47	0xbe9cf8e5	-0.3065864
48	0x3e488b25	0.1958433
49	0xbe92e986	-0.2869379
50	0xbe0e817f	-0.13916586
51	0x3de2d5e1	0.110759504
52	0x3f54d987	0.8314442
53	0xbf1750b8	-0.5910754
54	0xbf6b0e0d	-0.91818315
55	0x3e06eab4	0.1317547
56	0x3f696ad0	0.9117861
57	0xbf484b11	-0.7823954
58	0xbd872f9d	-0.066008784
59	0xbf3939d7	-0.7235388
60	0xbf978317	-1.183688
61	0x3f80dc99	1.0067321
62	0x3da104db	0.07862254
63	0xbf402e0c	-0.7507026
